YunlongTang_Week2/YunlongTang_Day6/checkpoints/cnn/epoch-9.pth (torch, 891023 bytes, 8 tensors)

conv1.weight f4 [4, 1, 3, 3]
0.8994284 1.1733861 0.096897654 0.15327987 0.09332724 -1.6510134 -1.300892 -1.1758237
-0.9237069 -0.21926172 0.12838149 0.038762085 -0.054046564 -0.2413422 0.031763613 -0.023834841
0.3274434 0.048986804 -0.03324504 -0.23873885 0.45572272 -0.029187225 -0.382543 0.36464614
-0.19209293 -0.032605395 -0.20549458 0.16208306 -0.14380416 0.26822293 0.85346633 0.4776511
0.39581692 0.059841312 -0.05338278 -0.3025895
00000000: f140 663f 8431 963f 4772 c63d 66f5 1c3e
00000010: 5a22 bf3d 6854 d3bf a183 a6bf 6481 96bf
00000020: 0e78 6cbf 2586 60be 7076 033e fec4 1e3d
00000030: ee5f 5dbd 6922 77be 901a 023d 4941 c3bc
00000040: a9a6 a73e 63a6 483d f32b 08bd f577 74be
00000050: 7d54 e93e 0c1a efbc addc c3be e6b2 ba3e
00000060: 02b4 44be 3c8d 05bd 2c6d 52be 1af9 253e
00000070: 6641 13be 8454 893e c57c 5a3f af8e f43e
00000080: 84a8 ca3e 2a1c 753d e7a7 5abd 03ed 9abe

conv1.bias f4 [4]
-0.10253031 -0.19814213 -0.010472638 -0.07209848
00000000: 69fb d1bd c5e5 4abe 6d95 2bbc 5ea8 93bd

conv2.weight f4 [6, 4, 3, 3]
-0.08962756 -0.043576792 -0.088753454 0.058348943 0.071733564 -0.02636061 -0.033265967 -0.0755741
-0.32065338 -0.011402047 0.017910711 -0.012829038 -0.12586664 0.016195357 0.08307311 -0.08578881
-0.091541395 0.14402524 0.030309966 -0.13648611 -0.035051376 -0.04016035 0.05574938 0.15149502
-0.06483719 0.042403117 -0.0919858 -0.5726097 -0.1661918 -0.36352164 0.2171867 -0.06981278
-0.3025876 0.42727536 0.2643633 0.1463359 -0.13281718 0.30826387 0.7150915 -0.55913335
-0.23678073 0.5838014 -0.7258703 0.2570679 1.0034791 -0.003411797 0.04058017 0.11529418
0.137305 0.0083865365 -0.006112373 -0.014841076 0.15793036 -0.010905897 -0.05421955 0.020574255
0.07820044 0.07563089 -0.16050631 0.008333995 0.15593639 -0.020789258 -0.22714877 0.29176655
0.70891035 0.6778085 -1.1333044 -0.06287469 -0.16895019 -1.4382519 -0.76335275 -0.95153457
-0.14788817 0.13150364 -0.34024927 -0.45405436 -0.046141416 -0.3617935 0.027716344 -0.38945848
-0.42842284 -0.0066983034 -0.1325137 0.07488926 -0.06507273 0.14725299 -0.06372491 0.15899496
-0.06777285 0.13792269 0.005846409 0.13934061 0.016286852 0.15919825 0.16993889 0.1607212
-0.11493525 0.18680574 -0.021532785 0.5659979 0.39229882 0.36383277 0.032668997 -0.20444253
0.06726323 -0.0290626 -0.13269646 0.08276602 0.27322522 -0.0054834317 -0.452629 -0.25102407
-0.1505387 -0.004745219 -0.15811452 -0.091286406 -0.10906129 -0.07316912 -0.08201067 0.06968266
-0.087684445 -0.09305108 -0.010284208 0.035406746 0.035392363 0.046784867 0.014623348 0.052576493
-0.008151465 0.13792421 0.0041341186 -0.13143219 -0.012301455 0.12413223 0.06905639 -0.28941235
-0.062223658 -0.7776461 -0.38234478 0.048943814 -0.58042717 -0.8429579 -0.26973778 -0.70225894
-0.36110073 -0.26276147 -0.12310429 -0.0021074566 0.34082508 0.6187359 0.61295277 0.33270678
0.12522407 -0.08297251 -0.087500505 0.12486608 -0.13416809 0.110941 -0.041559234 0.08567203
0.08363879 0.041908372 -0.12037456 0.016421396 -0.049941637 -0.14217037 -0.07400838 0.037593883
-0.29874694 -0.19270755 0.08244617 -0.8129766 -0.4382416 0.2902643 -0.2662795 -0.2412399
0.17222932 0.637465 0.4549334 0.50331366 -0.35452676 -0.14747341 -0.57152927 -0.06192858
-0.24346492 -0.5767958 -0.08002895 -0.09467801 -0.41531956 -0.10254622 -0.14692365 -0.16542353
-0.12869667 -0.06495288 -0.018303629 0.025077412 -0.008833703 -0.14293441 0.11363364 0.015027809
0.045922376 0.16188212 0.094886154 -0.14023325 -0.07544099 -0.017890539 -0.004280011 1.1929989
0.05314998 -1.3231725 1.0543948 -0.13435897 -0.84269166 0.5790878 -0.5313152 -1.2151611
00000000: a78e b7bd 947d 32bd 5fc4 b5bd 4dff 6e3d
00000010: 0ce9 923d 35f2 d7bc e541 08bd 98c6 9abd
00000020: ae2c a4be a7cf 3abc 7cb9 923c e330 52bc
00000030: 2fe3 00be 20ac 843c 3c22 aa3d 0bb2 afbd
00000040: 0e7a bbbd 5a7b 133e 9b4c f83c 04c3 0bbe
00000050: 0892 0fbd 2e7f 24bd 7659 643d 8321 1b3e
00000060: 5cc9 84bd e4ae 2d3d 0d63 bcbd 8d96 12bf
00000070: 2f2e 2abe 821f babe 3166 5e3e 01fa 8ebd
00000080: c3ec 9abe d6c3 da3e a05a 873e 14d9 153e
00000090: 3a01 08be c3d4 9d3e 3d10 373f 5d23 0fbf
000000a0: a676 72be 0274 153f a3d2 39bf 679e 833e
000000b0: 0172 803f 7598 5fbb 6437 263d 5b1f ec3d
000000c0: af99 0c3e af67 093c 4d4a c8bb fc27 73bc
000000d0: 7fb8 213e a6ae 32bc 5215 5ebd 578b a83c
000000e0: 8d27 a03d 5ee4 9a3d c45b 24be 4f8b 083c
000000f0: caad 1f3e 3c4e aabc b099 68be 6d62 953e
00000100: 267b 353f dc84 2d3f 1e10 91bf 72c4 80bd
00000110: 4701 2dbe a318 b8bf 166b 43bf c597 73bf
00000120: ff6f 17be e4a8 063e 2735 aebe d079 e8be
00000130: c8fe 3cbd ff3c b9be 630d e33c 1a67 c7be
00000140: 3d5a dbbe 717d dbbb acb1 07be 8a5f 993d
00000150: da44 85bd 7dc9 163e 3582 82bd 93cf 223e
00000160: 7ecc 8abd 9b3b 0d3e 3c93 bf3b 4eaf 0e3e
00000170: 016c 853c de04 233e 7604 2e3e 1994 243e
00000180: 2c63 ebbd 014a 3f3e 8665 b0bc 3de5 103f
00000190: 64db c83e 4a48 ba3e edcf 053d 6259 51be
000001a0: 4ec1 893d b114 eebc 95e1 07be 3b81 a93d
000001b0: 2de4 8b3e 5cae b3bb fdbe e7be 3a86 80be
000001c0: d126 1abe c87d 9bbb c6e8 21be 5ef4 babd
000001d0: 875b dfbd b1d9 95bd 36f5 a7bd c8b5 8e3d
000001e0: e793 b3bd 9191 bebd 187f 28bc aa06 113d
000001f0: 95f7 103d 7da1 3f3d c496 6f3c 735a 573d
00000200: b98d 05bc 013c 0d3e 8077 873b 2996 06be
00000210: 0b8c 49bc 0a39 fe3d 706d 8d3d db2d 94be
00000220: 3cde 7ebd d113 47bf b2c2 c3be 4f79 483d
00000230: e096 14bf 17cc 57bf 121b 8abe 3ec7 33bf
00000240: 32e2 b8be ac88 86be 1a1e fcbd 411d 0abb
00000250: a080 ae3e 7a65 1e3f 79ea 1c3f 8b58 aa3e
00000260: bd3a 003e 7eed a9bd 7733 b3bd cab9 ff3d
00000270: 5c63 09be 0935 e33d 043a 2abd d174 af3d
00000280: d04a ab3d 1da8 2b3d f086 f6bd 2a86 863c
00000290: 9a8f 4cbd 1c95 11be b591 97bd 0bfc 193d
000002a0: 5cf5 98be 2155 45be 8ad9 a83d 3c1f 50bf
000002b0: 3461 e0be 869d 943e c955 88be 9807 77be
000002c0: e25c 303e e830 233f 08ed e83e 2ad9 003f
000002d0: 8884 b5be 4503 17be be4f 12bf d3a8 7dbd
000002e0: de4e 79be e4a8 13bf 38e6 a3bd 8be6 c1bd
000002f0: c4a4 d4be c103 d2bd 2773 16be c964 29be
00000300: 0fc9 03be 0406 85bd 7ef1 95bc 256f cd3c
00000310: 3cbb 10bc 665d 12be c1b8 e83d 3337 763c
00000320: 1a19 3c3d 6dc4 253e ac53 c23d 4e99 0fbe
00000330: ce80 9abd 2e8f 92bc 563f 8cbb 30b4 983f
00000340: cbb3 593d b75d a9bf 69f6 863f 6695 09be
00000350: a4ba 57bf 193f 143f 4604 08bf 668a 9bbf

conv2.bias f4 [6]
-0.15416057 -0.07056873 -0.0729263 0.49880368 -0.42306906 -0.24034113
00000000: 45dc 1dbe 5786 90bd 625a 95bd 3263 ff3e
00000010: 829c d8be fc1b 76be

l1.weight f4 [64, 3456]
-0.011963305 -0.0144656515 -0.03069525 -0.013802112 -0.02744991 -0.016576065 -0.03397943 -0.0061538788
-0.0010599571 -0.0067939735 -0.022026857 -0.01857229 -0.022120995 -0.009178124 -0.031223394 -0.020539096
-0.018179854 -0.0051171915 -0.0090393955 0.0068327407 -0.004567056 -0.0028191507 -0.017240983 -0.012764276
-0.0087062195 -0.017248811 0.0047853757 -0.011115262 0.0025163041 0.0010568312 -0.034130767 -0.018750029
0.001768033 0.00051364925 -0.012808794 0.0045472723 -0.002609535 -0.024436178 -0.022961367 -0.022876978
-0.029818587 0.00064902985 -0.013361313 -0.02157638 -0.0044695856 -0.0011120917 -0.018807465 0.014140984
0.010018489 0.011783528 0.0048931777 -0.001194179 -0.010169337 -0.0003582064 0.0028287922 -0.014665514
-0.015535234 -0.005338594 -0.027071957 -0.027784113 -0.027738312 -0.036233213 -0.032126985 -0.044296656
-0.045132678 -0.005896045 -0.029208375 -0.019514723 0.009832568 -0.023455895 -0.0016258043 0.006364401
-0.015892653 0.0036712745 -0.011021679 -0.0032914171 0.014397282 -0.004576632 -0.007914794 0.01030276
0.0039918325 -0.029761182 -0.028838508 -0.028215425 -0.017932562 -0.035400763 -0.012379926 -0.022070978
0.0013050522 -0.02748992 -0.010000266 -0.011078309 0.0012115017 -0.026972637 -0.0073294966 -0.0075862417
0.0069675194 0.010328964 0.0038900787 0.025028931 0.015931193 -0.0024273763 0.0047239964 0.015019362
-0.0029204544 0.013152698 -0.017154029 -0.03389262 -0.03744933 -0.019982602 -0.03393461 -0.03165724
-0.024580555 -0.018402416 -0.008093734 0.00052189577 -0.01978246 -0.022608683 -0.0042119874 -0.006415908
0.010332989 -0.00016528688 -0.0035688612 0.011040998 0.026462624 0.0032371436 0.027512906 0.018975023
0.018978415 0.010126314 -0.019177865 -0.015615876 -0.010151632 -0.008589832 -0.027596075 -0.013835213
-0.009083551 0.008085127 0.011471842 -0.0025974987 0.016808745 0.0005200722 -0.012778779 -0.012706371
0.00010484731 0.0030985414 0.0025300526 0.015245051 0.002387829 0.006604359 0.017285904 0.019032897
0.007756667 0.003058175 -0.0059273653 0.0012388079 0.011023282 0.0034953188 -0.0053434456 -0.018633533
0.01287666 -0.009092892 -0.0040472965 0.01391727 0.015199513 0.0006724133 -0.0043932414 0.0049091554
0.004241659 0.020862522 0.02599552 0.029917784 -0.00057924754 0.00653974 0.014191576 -0.008046357
-0.0027852359 0.0044670217 0.0029734755 -0.008983153 -0.007572011 0.006573471 0.013283416 -0.002854806
-0.006302432 0.0118496 -0.0016658818 -0.011199443 -0.007205702 -0.015962863 0.0014191298 0.009274454
-0.00088897586 0.0074204667 0.0072227 0.023586098 0.0077280984 0.0033324012 0.002749886 -0.00771575
-0.017264295 -0.020507263 -0.0066691507 -0.0016263665 -0.0049866713 0.015401691 0.018696195 -0.0017629646
0.0064131757 0.018943615 -0.013915081 -0.012023911 0.0073777265 -0.015033819 -0.009048764 0.0042046523
-0.0021230807 -0.0047727167 0.018384563 0.009604377 -0.017022252 -0.019837406 0.0009790388 0.004702331
-0.015394716 0.0015528266 0.015174399 -0.004385292 0.013098995 0.01932432 0.03822108 0.018507436
0.0038407135 0.007186356 -0.0036208876 0.005822845 -0.007745765 0.011596403 0.015612946 -0.008940182
0.014543848 -0.0034459138 -0.0037609627 0.009977596 0.014827743 -0.023895076 -0.029365502 0.0147132315
0.009917797 0.00638881 0.0109556075 0.004150343 0.023026573 0.034427516 0.03851315 0.012955614
00000000: bd01 44bc 5701 6dbc 9b74 fbbc 4122 62bc
00000010: a2de e0bc 87ca 87bc 042e 0bbd 7aa6 c9bb
00000020: 42ee 8aba fb9f debb ab71 b4bc ea24 98bc
00000030: 1737 b5bc d85f 16bc 34c8 ffbc 9b41 a8bc
00000040: ebed 94bc 1dae a7bb f919 14bc 2fe5 df3b
00000050: 3ea7 95bb 80c1 38bb f63c 8dbc 4121 51bc
00000060: 88a4 0ebc 614d 8dbc a4ce 9c3b ca1c 36bc
00000070: 94e8 243b 5f85 8a3a b4cc 0bbd a999 99bc
00000080: 58bd e73a 6ba6 063a fadb 51bc 4901 953b
00000090: bb04 2bbb 612e c8bc 7a19 bcbc 8068 bbbc
000000a0: 1c46 f4bc a823 2a3a 69e9 5abc f3c0 b0bc
000000b0: 9a75 92bb 9bc3 91ba 1d12 9abc 96af 673c
000000c0: 9724 243c b30f 413c f356 a03b 0086 9cba
000000d0: 4a9d 26bc a6cd bbb9 4263 393b a047 70bc
000000e0: 7e87 7ebc 5fef aebb 02c6 ddbc 829b e3bc
000000f0: 753b e3bc 4769 14bd 9697 03bd 6970 35bd
00000100: 0bdd 38bd 9c33 c1bb 6746 efbc 57dd 9fbc
00000110: c718 213c 9426 c0bc f118 d5ba 778c d03b
00000120: 4f31 82bc c499 703b 4694 34bc d1b4 57bb
00000130: 94e2 6b3c 92f7 95bb 0dad 01bc e8cc 283c
00000140: ebcd 823b b9cd f3bc bc3e ecbc 0924 e7bc
00000150: 4fe7 92bc 6400 11bd 2cd5 4abc 32ce b4bc
00000160: 490e ab3a 8a32 e1bc 28d8 23bc cc81 35bc
00000170: 40cb 9e3a b8f5 dcbc 462c f0bb 0296 f8bb
00000180: ca4f e43b d13a 293c b1f0 7e3b 7909 cd3c
00000190: 2282 823c 9e14 1fbb c1cb 9a3b c513 763c
000001a0: 1865 3fbb 6a7e 573c 9b86 8cbc fdd2 0abd
000001b0: 7864 19bd 8eb2 a3bc 05ff 0abd 06ab 01bd
000001c0: 295d c9bc aac0 96bc 959b 04bc d5cf 083a
000001d0: d30e a2bc d835 b9bc b604 8abb 8a3c d2bb
000001e0: b24b 293c dc50 2db9 8ee3 69bb 4de5 343c
000001f0: 25c8 d83c 4226 543b bf62 e13c 8271 9b3c
00000200: 9f78 9b3c d7e8 253c e61a 9dbc bbd9 7fbc
00000210: 0853 26bc 5ebc 0cbc 2a11 e2bc 17ad 62bc
00000220: 2dd3 14bc 7b77 043c 65f4 3b3c cc3a 2abb
00000230: 7eb2 893c 7455 083a 155e 51bc 622e 50bc
00000240: 79e1 db38 e610 4b3b 3dcf 253b 61c6 793c
00000250: 1f7d 1c3b 6169 d83b 2b9b 8d3c e1ea 9b3c
00000260: a42b fe3b aa6b 483b 583a c2bb 7f5f a23a
00000270: ff9a 343c b811 653b 1218 afbb 5aa5 98bc
00000280: a0f8 523c 5afa 14bc 2f9f 84bb 4305 643c
00000290: 6107 793c e544 303a 2ef5 8fbb fbdc a03b
000002a0: 9dfd 8a3b e1e7 aa3c 8ff4 d43c 2416 f53c
000002b0: a5d8 17ba 514b d63b c983 683c ded4 03bc
000002c0: 8188 36bb 1860 923b a4de 423b 132e 13bc
000002d0: a21e f8bb 4566 d73b afa2 593c b217 3bbb
000002e0: a284 cebb d324 423c b859 daba de7d 37bc
000002f0: cf1d ecbb 8dc4 82bc 1802 ba3a e1f3 173c
00000300: 290a 69ba 6327 f33b 66ac ec3b a237 c13c
00000310: fd3b fd3b 6a64 5a3b 6e37 343b 67d4 fcbb
00000320: da6d 8dbc d9fe a7bc e488 dabb ce2b d5ba
00000330: 3b67 a3bb 6057 7c3c c328 993c 4713 e7ba
00000340: 9e25 d23b a42f 9b3c 14fc 63bc f0ff 44bc
00000350: dbc0 f13b 6850 76bc 4441 14bc 2ec7 893b
00000360: 6223 0bbb 7364 9cbb 399b 963c ad5b 1d3c
00000370: 4072 8bbc 0e82 a2bc 1753 803a 0316 9a3b
00000380: 1e3a 7cbc 3788 cb3a 0b9e 783c 7fb2 8fbb
00000390: 2b9d 563c 094e 9e3c b58d 1c3d e89c 973c
000003a0: 7bb4 7b3b 867b eb3b 6a4c 6dbb 90cd be3b
000003b0: 30d0 fdbb d7fe 3d3c 71cd 7f3c d779 12bc
000003c0: 5249 6e3c d7d4 61bb 7c7a 76bb 1279 233c
000003d0: 10f0 723c 9bbf c3bc ec8f f0bc c40f 713c
000003e0: 417e 223c 3959 d13b 267f 333c 9aff 873b
000003f0: 39a2 bc3c de03 0d3d f7bf 1d3d c943 543c

l1.bias f4 [64]
0.027878754 -0.06412723 0.030073438 -0.026898062 0.00433873 -0.0061287847 -0.04524786 -0.03967437
-0.024948644 -0.09235089 0.09180144 0.077252604 -0.0570949 -0.02443566 0.04728599 0.058214378
0.033707388 -0.061100338 0.048693467 -0.03853874 0.09254986 -0.019421453 -0.008717462 -0.015474291
-0.043508414 0.010771871 -0.021034233 -0.0044411845 -0.0814776 0.0069036125 -0.039606042 -0.011013479
0.013303695 0.111658245 0.04388165 -0.09695443 0.013543903 -0.018187895 -0.03669061 0.024483724
0.046032593 0.19260383 -0.018014662 -0.01332955 -0.034178037 -0.026051164 -0.015753942 -0.026019964
-0.068511344 -0.07374641 -0.04232176 0.0038545255 -0.0135147255 -0.01759675 0.035302393 -0.023937209
0.01096753 0.059467494 5.2023934e-05 -0.06671736 0.010928138 -0.053701077 -0.0015574362 -0.03259411
00000000: fc61 e43c 2355 83bd 925c f63c 5359 dcbc
00000010: e82b 8e3b f9d3 c8bb d255 39bd 9881 22bd
00000020: 1961 ccbc 7722 bdbd 6502 bc3d 9d36 9e3d
00000030: 58dc 69bd 4b2d c8bc f4ae 413d 3372 6e3d
00000040: c210 0a3d 5944 7abd cd72 473d ccda 1dbd
00000050: c88a bd3d bd19 9fbc b0d3 0ebc e187 7dbc
00000060: e135 32bd 807c 303c fc4f acbc 5b87 91bb
00000070: badd a6bd b337 e23b f239 22bd e171 34bc
00000080: bef7 593c 14ad e43d 3fbd 333d 0b90 c6bd
00000090: 3fe7 5d3c c8fe 94bc e548 16bd 1792 c83c
000000a0: ac8c 3c3d f039 453e 7c93 93bc 2f64 5abc
000000b0: 45fe 0bbd 4069 d5bc 690e 81bc d227 d5bc
000000c0: ad4f 8cbd 5c08 97bd 9559 2dbd 359c 7c3b
000000d0: de6c 5dbc 0f27 90bc 3e99 103d f717 c4bc
000000e0: 28b1 333c 3094 733d 4634 5a38 1ca3 88bd
000000f0: ef0b 333c a9f5 5bbd e322 ccba 6781 05bd

l2.weight f4 [10, 64]
-0.14540645 -0.11264171 -0.424899 -0.70269847 -0.37788793 -0.0509859 0.49755877 0.08758885
0.16848218 -0.13575996 -0.2427632 0.5884462 0.08423422 -0.20589843 -0.23574787 -0.30621725
-0.39241913 0.10497596 -0.2510154 -0.39804026 0.503292 0.20435265 -0.07311254 0.38744408
-0.28951585 0.032699652 -0.112762734 -0.11051185 -0.055655215 0.025525656 0.016390232 0.2924541
-0.41277555 0.6018707 -0.2735032 -0.5187921 -0.3457506 0.06753622 0.37137535 0.39410752
-0.07278457 -0.015721055 -0.62052596 0.26304558 0.394679 0.5352788 -0.0017542421 0.07017271
-0.22415593 0.16152404 -0.1593857 0.5024845 0.17082419 0.18501855 -0.40377614 0.0067445445
-0.37082642 0.2133536 -0.21395235 0.09203126 0.15643154 0.60293674 -0.6190323 0.47723043
0.03814358 -0.17956074 0.6582392 -0.16978331 0.37822714 0.02809359 0.09523463 -0.17284258
-0.273137 -0.13088894 0.032222528 -0.20778568 -0.3332783 -0.35796073 0.34133223 -0.4570687
-0.36616117 0.90596783 -0.19948193 -0.25547498 -0.10885003 -0.21815702 -0.25382325 -0.036428995
0.5363207 -0.17301433 0.15456942 -0.096982315 0.29053873 0.040256552 0.68167114 0.75021386
0.21418937 -0.20622137 0.69167733 0.21256375 0.2977305 -0.4101347 0.443877 -0.11285762
-0.46267027 -0.23326823 0.06829564 0.6703889 0.15183413 0.16717435 -0.06484637 -0.02663539
0.6225867 0.16581891 -0.27057776 -0.39314044 -0.021520542 -0.23609006 0.048162498 -0.5161512
0.004960726 -0.28879398 0.3736854 -0.3484626 0.05707664 0.46873382 -0.2926967 -0.2936009
0.433455 0.43400142 -0.14412086 0.195303 0.48359862 0.11842851 -0.21260127 0.10266707
0.15894806 0.07066006 -0.14333752 0.16793908 0.21527047 0.4106017 0.02734131 0.1577574
-0.06859885 0.15721521 0.44994757 0.02717871 0.054313235 -0.41016832 -0.09681828 -0.08011995
-0.19335113 0.34958053 -0.047281183 0.027983122 -0.39611596 -0.03200879 0.2012082 -0.217797
0.21331286 0.24037308 -0.28513622 0.22909679 -0.046564724 0.3774996 -0.15125461 -0.121635966
0.15508267 -0.0058557917 -0.1345939 -0.23342851 -0.41423053 0.11604029 0.115433425 -0.1755176
0.064086825 0.12450623 0.17109181 -0.13086993 0.053634632 0.05462544 0.5057955 0.19306488
-0.25312036 -0.0009911845 0.39593267 0.26971266 -0.231112 -0.10595619 0.3063235 -0.35685408
-0.32669207 -0.52681065 -0.11771392 0.53599966 -0.45405078 0.10430766 -0.12236375 0.46690857
0.095895015 0.3719828 -0.110142924 0.078869715 -0.40063918 0.06448287 -0.15907739 0.4822995
-0.5090648 -0.24253444 -0.24093606 0.5460485 -0.13864733 0.23775743 -0.340794 0.25003502
0.4706266 0.013105714 0.6138918 -0.32928413 0.6102557 0.17515172 -0.34137312 -0.13460268
0.29803082 -0.0076383185 0.38304842 0.5106886 -0.13698754 0.16064754 -0.22930296 -0.19388838
0.32287753 -0.054306623 0.3314905 -0.32007858 -0.39881355 -0.06601402 0.03297761 0.5283961
0.50093323 -0.43131888 0.3901588 -0.15257618 -0.33746272 -0.22831437 -0.21561801 0.12507969
-0.2418542 -0.302016 -0.003284433 -0.5651087 0.35209718 -0.059123855 0.17937154 0.09045482
00000000: 6ee5 14be b2b0 e6bd 5d8c d9be 0ce4 33bf
00000010: 877a c1be 97d6 50bd 06c0 fe3e c861 b33d
00000020: 9886 2c3e a904 0bbe eb96 78be 69a4 163f
00000030: fe82 ac3d 0ad7 52be e467 71be 82c8 9cbe
00000040: 29eb c8be a3fd d63d 1785 80be efcb cbbe
00000050: bfd7 003f d241 513e 07bc 95bd 125f c63e
00000060: 6c3b 94be 12f0 053d 26f0 e6bd 0954 e2bd
00000070: b9f6 63bd 2e1b d13c cf44 863c 8bbc 953e
00000080: 5157 d3be 3314 1a3f 9d08 8cbe 8fcf 04bf
00000090: 3906 b1be 6e50 8a3d e924 be3e 76c8 c93e
000000a0: 1410 95bd 71c9 80bc cada 1ebf e9ad 863e
000000b0: 5e13 ca3e 0808 093f 99ee e5ba b6b6 8f3d
000000c0: 2289 65be 8f66 253e 0136 23be d3a2 003f
000000d0: 89ec 2e3e 8175 3d3e bfbb cebe 5701 dd3b
000000e0: f6dc bdbe 5e79 5a3e 5316 5bbe e37a bc3d
000000f0: 972f 203e 105a 1a3f e778 1ebf 8c57 f43e
00000100: 713c 1c3d c5de 37be 5d82 283f addb 2dbe
00000110: fda6 c13e 8724 e63c 600a c33d a5fd 30be
00000120: 9dd8 8bbe c007 06be c5fb 033d c5c5 54be
00000130: 74a3 aabe a146 b7be 19c3 ae3e e904 eabe
00000140: 7a79 bbbe 82ed 673f fe44 4cbe 9ecd 82be
00000150: c4ec debd 8e64 5fbe 1ff5 81be 9236 15bd
00000160: 504c 093f ab2a 31be 7247 1e3e aa9e c6bd
00000170: 7ec1 943e 0ee4 243d 0082 2e3f 040e 403f
00000180: 7554 5b3e b22b 53be c411 313f 50aa 593e
00000190: 2270 983e 2dfd d1be d943 e33e e521 e7bd
000001a0: 1ee3 ecbe dedd 6ebe 96de 8b3d 9b9e 2b3f
000001b0: 687a 1b3e c12f 2b3e 2cce 84bd 7632 dabc
000001c0: d861 1f3f 6fcc 293e 2b89 8abe b449 c9be
000001d0: d94b b0bc 98c1 71be 0a46 453d 7c22 04bf
000001e0: 968d a23b cedc 93be b153 bf3e b169 b2be
000001f0: 32c9 693d e1fd ef3e 58dc 95be db52 96be
00000200: d0ed dd3e 6f35 de3e 6b94 13be 82fd 473e
00000210: 3d9a f73e a68a f23d 26b4 59be 1d43 d23d
00000220: 48c3 223e 39b6 903d 12c7 12be 39f8 2b3e
00000230: dd6f 5c3e 633a d23e e2fa df3c 288b 213e
00000240: 8e7d 8cbd 06fd 203e 875f e63e e3a5 de3c
00000250: 8e77 5e3d 9501 d2be aa48 c6bd ee15 a4bd
00000260: d7fd 45be 38fc b23e eaa9 41bd dc3c e53c
00000270: b6cf cabe a61b 03bd 8609 4e3e 2d06 5fbe
00000280: b06e 5a3e 5c24 763e 60fd 91be 5998 6a3e
00000290: a7ba 3ebd a147 c13e 7de2 1abe 471c f9bd
000002a0: fecd 1e3e f1e1 bfbb fcd2 09be e207 6fbe
000002b0: 0616 d4be 88a6 ed3d 5c68 ec3d e3ba 33be
000002c0: f43f 833d 1ffd fe3d b132 2f3e c402 06be
000002d0: fdaf 5b3d edbe 5f3d d07b 013f cdb2 453e
000002e0: fe98 81be a2ea 81ba b0b7 ca3e c717 8a3e
000002f0: a0a8 6cbe 8fff d8bd 6fd6 9c3e 94b5 b6be
00000300: 2f44 a7be 10dd 06bf ff13 f1bd 4637 093f
00000310: 5879 e8be 419f d53d d999 fabd a40e ef3e
00000320: 9b64 c43d 8874 be3e 9d92 e1bd 7286 a13d
00000330: 9420 cdbe 980f 843d 2fe5 22be f6ef f63e
00000340: 1252 02bf f35a 78be f1b7 76be d6c9 0b3f
00000350: 91f9 0dbe af76 733e 8d7c aebe 9704 803e
00000360: f8f5 f03e 59b9 563c 0328 1d3f ee97 a8be
00000370: b839 1c3f f95a 333e 75c8 aebe 49d5 09be
00000380: 7f97 983e dc4a fabb ec1e c43e 7dbc 023f
00000390: 7646 0cbe ca80 243e 65ce 6abe ad8a 46be
000003a0: 3450 a53e 9f70 5ebd 1fb9 a93e 57e1 a3be
000003b0: 4a31 ccbe 5c32 87bd 8813 073d f844 073f
000003c0: 293d 003f d4d5 dcbe e5c2 c73e ee3c 1cbe
000003d0: eac7 acbe 3ecb 69be f8ca 5cbe e414 003e
000003e0: a1a8 77be d7a1 9abe a43f 57bb f7aa 10bf
000003f0: 1546 b43e db2b 72bd 2cad 373e 6040 b93d

l2.bias f4 [10]
-0.016008895 0.035999697 -0.3634072 0.34353465 0.39527288 0.034615625 -0.11654193 -0.48973668
1.0128462 0.01423331
00000000: 1625 83bc 6b74 133d 8210 babe c6e3 af3e
00000010: 3561 ca3e 1dc9 0d3d 89ad eebd c4be fabe
00000020: f2a4 813f d432 693c
