YunlongTang_Week2/YunlongTang_Day6/checkpoints/fc/epoch-9.pth (torch, 205023 bytes, 4 tensors)

fcn.0.weight f4 [64, 784]
00000000: f850 f83c 40ac b9bc 804c a5bc 1902 29bb
00000010: f90c 2739 27ab 313b e28f a6bc eef3 4ebd
00000020: 8a00 0ebc 0467 443c 2b94 bb3c 8173 a63b
00000030: 1aca 543d a2a3 b4bb 7bfe b23c 430e 983c
00000040: da8b c03c 1b59 d1bc 97d0 2ebd f407 913c
00000050: f5ef 1cbd 6120 dfbc 2dcc dcbc 00fc ed3b
00000060: dced 6e3c 857b afb9 747f 3f3c 8dca 95bc
00000070: 183b 9dbb 44af a83c 80a1 283d af63 643c
00000080: 8a52 363c 66f2 0dbd 108b 303c e1d6 0fbd
00000090: aaf1 7ebd 2179 6cbd a76c a63a 73cd f53c
000000a0: 8056 9fbb 0563 603d 6e58 efb9 2c33 463c
000000b0: f7a5 ffbc 3456 7abd a332 e1bc 5f56 14bd
000000c0: c788 14bc f4e2 40bc 94fb 8cbb c3da 363d
000000d0: 3f8d 87bc 9fc3 b6b7 53be 15bc 8d2e f7bc
000000e0: 77b0 02bd c9ca 1b3d 9e4f 9f3c b3be 1e3b
000000f0: cc8d e13c a67f 27bb 3ed6 93bc 11ab 123d
00000100: cbf9 443c 8454 abbd e77b c6bd 5102 f2bc
00000110: 1a8b bfbb 9a2f ba3c 7a90 4f3d bb05 4a3c
00000120: cab5 273d 5660 4bb9 5d78 1bbd 984b d9bc
00000130: 1213 933c 4f7e fa3c 4592 353c d764 07ba
00000140: f2f3 88bc e537 f83c 185f 563c d6d6 893c
00000150: a6da 773c 6bac bc3c 0feb 213d 43fb 5e3c
00000160: 7ac6 cd3c 0997 cf3c df5e 1d3d b4fe 07bd
00000170: cf00 3ebd ef51 81bd c8e1 82bd d438 8ebc
00000180: 2335 2abd 9d6f ae3c c638 43bc 6b19 533d
00000190: 4dd6 de3c 6a3e 0e3d 300b aabc cbb3 afbc
000001a0: fcd6 033c 1a71 ae3c ab6c e83b 0194 56bb
000001b0: 87b3 313d 853b 7a3c d4b1 febb a6c2 293d
000001c0: 40e0 b9bc 2f5f 373d 9df4 94bb a523 073d
000001d0: 244a 8f3c fda3 42bc b8ee d5bc d18d 313b
000001e0: f5d1 9cbd 2951 77bd 33e6 b1bd 7f2c abbd
000001f0: e49e 17bd edbe 823c 1bc2 533d 10e3 0a3d
00000200: 2ac8 983c 283c 333d b35d f3bc 3464 2ebd
00000210: cf23 20bd 0d5d ce3c f6a4 da3c 44f3 7d3c
00000220: d1c5 2e3d a7c3 133d 2768 9e3b 407f 47bc
00000230: d50c 1a3d 6d75 95bc 05e8 2ebb 744d 2bbc
00000240: eac0 8f3d 2763 b6bc f635 c63b 98b3 e4bc
00000250: e425 e1bc 866d 84bd 9115 69bd bc57 babd
00000260: 2c22 bbbc e2a3 3b3c 3c03 b83c 865b 413d
00000270: 5e3d f43c 2db3 24bc 3d2c 883c 5839 cebc
00000280: 7d94 af3c 4a8c 403b 698c 703d 1b7c f53b
00000290: bccd 823d 0f97 a03c a21f 57bc b6a4 c4bc
000002a0: fa41 7fbb 9659 63bc 69c4 863c 9553 ed39
000002b0: 161c 0b3c ed8a 6dbc 88bf 0b3d e5e7 3fbd
000002c0: 6382 5abc 8676 22bc 416b 07bd bfcf 9fbc
000002d0: ff07 95bc 4bb4 723d c94e 2e3d 4486 cf3c
000002e0: f703 a3bb 3f63 2cbc 4729 5cbd e970 daba
000002f0: 1f89 52bc 82ec 5bbc 215a 1b3d 36b2 173d
00000300: 3fba 193d afe5 f8bb 08ba 0a3d 1a06 92bc
00000310: 5511 4a3c 077c 41bc f0e3 70bb 4d51 6ebd
00000320: 074a a5bc 5c97 203d f6e0 80bc 985a 713b
00000330: 83e8 bdb9 1506 5fbd d31b 14bd 4e53 43bd
00000340: b257 d6bc 32cc 373d 00f6 c13a cccb 6c3c
00000350: c41e 09bd 237a 76bd 054f 72bd 4f4f d4bd
00000360: 3acc 9eba 66f9 20bb ec62 103d 3056 223d
00000370: 36ae 8c3d 3a1f 2ebc 46a6 82bc 63bc c4bb
00000380: e330 5ebb 739b fdbc 4594 d6bc 484e a3bd
00000390: 537f be3b dfcd c63c 17d8 223d 5ff7 213d
000003a0: be96 073d 1c05 3f3c 1a0c 2ebc 4a26 3bbd
000003b0: bde4 46bc 0b12 4bbc 9d22 433c 067d 92bc
000003c0: 0b90 a2bd e450 9cbd 0662 adbd 263b 5ebd
000003d0: dad1 a0bc 6654 083d 4e49 783d 743b 793d
000003e0: 790b ce3c a5d1 0a3d 673b 013d 6f9b 46bc
000003f0: 2fb3 cebc f407 86bd 271b 8fbd ee04 aabd
0.030312046 -0.022665143 -0.02017808 -0.0025788604 0.00015931194 0.0027110071 -0.02033228 -0.0505256
-0.008667121 0.011987451 0.0228978 0.005079687 0.05195055 -0.0055126706 0.021849861 0.018561488
0.023504186 -0.025555184 -0.042679396 0.017703988 -0.03831478 -0.02723712 -0.026952827 0.0072627068
0.014583077 -0.0003347063 0.011688102 -0.01828506 -0.0047983043 0.020591386 0.041169643 0.013939782
0.011128077 -0.034654997 0.010775343 -0.035117034 -0.062242188 -0.057732705 0.0012697176 0.030005192
-0.0048626065 0.054781932 -0.00045651518 0.012097161 -0.031207068 -0.061117366 -0.027489966 -0.036215182
-0.009065813 -0.01177286 -0.0043024514 0.04464222 -0.016546844 -2.1787184e-05 -0.009139615 -0.030173564
-0.03190657 0.038035188 0.019447144 0.0024222552 0.027533434 -0.0025558262 -0.018046495 0.035807673
0.012022446 -0.083657295 -0.09691601 -0.02954212 -0.0058454396 0.022727776 0.050674893 0.012330468
0.040944852 -0.00019395477 -0.037956584 -0.026525304 0.01795343 0.030577807 0.011082237 -0.00051648676
-0.016717885 0.03030009 0.013084196 0.016826075 0.015127813 0.023031434 0.03953081 0.01360971
0.025119055 0.025340574 0.038420554 -0.03320189 -0.04638749 -0.06314456 -0.063907206 -0.017361082
-0.04155458 0.021293456 -0.011915391 0.051537912 0.027201796 0.03472749 -0.020757288 -0.021448037
0.008046862 0.021294165 0.0070930324 -0.0032742026 0.0433841 0.01527298 -0.0077726636 0.041445397
-0.022689939 0.04476851 -0.0045457617 0.032992978 0.017491408 -0.011879918 -0.026114807 0.0027092586
-0.076572336 -0.060380135 -0.08686485 -0.08358096 -0.037016764 0.015960181 0.051698785 0.03390795
0.018650133 0.04375854 -0.029707765 -0.04257603 -0.03909665 0.025190854 0.026689988 0.015499894
0.04266912 0.03607526 0.0048341933 -0.012176335 0.037609894 -0.01824447 -0.0026688587 -0.010455478
0.07019217 -0.022264076 0.006048913 -0.027917668 -0.027483888 -0.064662024 -0.056905333 -0.09098765
-0.022843443 0.011452647 0.02246248 0.047206424 0.029814418 -0.010052484 0.016622657 -0.025173828
0.02143311 0.0029380494 0.058727656 0.007491601 0.06386897 0.01960328 -0.0131301 -0.024004322
-0.0038949237 -0.013876339 0.016451078 0.00045266436 0.008490583 -0.0144984545 0.034118205 -0.04685201
-0.013336751 -0.0099159535 -0.03306127 -0.01950824 -0.01819229 0.059253972 0.042555604 0.025332578
-0.004974838 -0.010521709 -0.053750303 -0.001666573 -0.012850075 -0.013423087 0.03792775 0.03703519
0.037531134 -0.00759574 0.03386882 -0.017825175 0.012333234 -0.011809356 -0.0036756955 -0.058183003
-0.0201769 0.039206848 -0.01573227 0.003682768 -0.00036222124 -0.05444916 -0.036159348 -0.047686867
-0.026164863 0.04487247 0.0014798045 0.014452886 -0.033476606 -0.060175072 -0.05915739 -0.103666894
-0.0012115308 -0.0024562716 0.03525059 0.039632976 0.068691656 -0.010627562 -0.015948426 -0.0060039028
-0.003390365 -0.030957913 -0.026193747 -0.07973915 0.005813518 0.024268089 0.03975686 0.039542552
0.033102743 0.011658933 -0.010623002 -0.045690812 -0.012139496 -0.0123944385 0.011910108 -0.017881881
-0.0793763 -0.07632616 -0.08465962 -0.054255627 -0.019631315 0.033283614 0.060616784 0.060847715
0.025151955 0.03389134 0.03155079 -0.012122019 -0.025231926 -0.06544486 -0.06987601 -0.083017215

fcn.0.bias f4 [64]
00000000: 88f6 d1bd 1040 3b3d f50e 34be 7f38 9bbd
00000010: b222 a53e bc1e 5abc 1918 06be b595 3e3e
00000020: 341f b9be c057 93bd 2e5a 0e3e c882 93bd
00000030: 33fe ecbd 5da2 8b3e d3a6 31bd 24c0 923e
00000040: e485 44be c70f 2f3e c10f 1dbd a375 17be
00000050: 9b84 6f3e 9bbf 2abe 2a69 7d3e 2e77 a73d
00000060: a6fd a33d ab7d b43e 0095 eb3e 3b13 edbd
00000070: 089c 483d 30b1 913e 502d afbd c800 073f
00000080: efe3 f6bc 3a1d fa3c 04cb ff3c 6f56 61bd
00000090: 2097 033c f687 4b3e 92de 8c3d f094 f7bd
000000a0: aad7 de3e cef1 6ebe 025f ecbe 669c 02bd
000000b0: eb4f 083f 8c0b 853e 344e e4bd d505 f03d
000000c0: 316c 36be bc4e 063d 1d5a 473e cf5e 4abe
000000d0: a80e 1cbe 65a6 f2bd e5d8 d23c 7d81 4ebe
000000e0: 61cf c9be dbe6 abbe b15b 9c3d bf3c 0ebe
000000f0: 3510 c83d 9c7f c23c c031 ae3d 8ddf c33e
-0.102521 0.04571539 -0.1758383 -0.07579135 0.32253033 -0.013312992 -0.1309513 0.18611796
-0.3615662 -0.07194471 0.13901588 -0.07202679 -0.11571922 0.2727231 -0.043371987 0.28662217
-0.191917 0.17095862 -0.038345102 -0.14790969 0.23390429 -0.16674654 0.24747148 0.081770286
0.08007364 0.35252127 0.46012115 -0.115759335 0.048976928 0.28455496 -0.085535645 0.5273557
-0.030137984 0.030531514 0.031224735 -0.05501407 0.0080316365 0.19876084 0.068783894 -0.120889544
0.43523914 -0.23334429 -0.46166235 -0.031887434 0.53246945 0.25985372 -0.111477286 0.11719862
-0.17814709 0.03278993 0.19467969 -0.19762729 -0.15239966 -0.118481435 0.025738189 -0.20166583
-0.3941603 -0.33574566 0.07634676 -0.1389036 0.09768716 0.02374249 0.08505583 0.38256493

fcn.2.weight f4 [10, 64]
00000000: f403 50be f79f b6bd 6c7a 44bf 847a 82bf
00000010: 12ea c2bd 81ef 3dbf a4da 813e c847 0a3f
00000020: e4d3 1abe 9f59 d33e 004c e43c a216 033f
00000030: 67ae d9be cd43 813c 86af 60bf 861d ed3e
00000040: 203d b5be 2749 343e 98f8 0f3f c7ad f8be
00000050: da56 a83d 5112 093e 7ec2 3d3e 8db9 98bd
00000060: 53a6 153f 5b59 33bf 293a d33e 0dd2 e73e
00000070: 3060 7e3e 2e57 003f daa2 64bf f1ce 893e
00000080: abe4 6c3b 9d12 05bf 064c ad3e 59e3 64bf
00000090: 9941 363e 34f9 f03e 31d9 203e 4e71 553e
000000a0: 72fe b83e 5a53 f4be ccc2 b8be 8826 a13d
000000b0: 0777 cabd 8030 dfbf 74ba 283f 8ed2 c93e
000000c0: 1ead 213e 5915 5ebf 9b50 59bf adc4 103f
000000d0: b3f4 1b3f b86a 9e3c 51a8 813e f12a 1d3e
000000e0: 5d61 203d 3839 73be b804 72bf 9db2 67be
000000f0: 3da4 20bf a257 5cbf 2d90 3bbe f324 293e
00000100: 094a 123f f6a2 813d 09ac 9cbd 6000 cf3e
00000110: 4e6b edbe ef5c 123f ce63 843f 151f 4bbf
00000120: fb4d 9b3f f8bb c2be 3774 87bd 4479 1dbf
00000130: 6b22 2dbf 31a8 773e ae4d 88bf 3254 15bf
00000140: e6a1 853f c8d9 33bd 57fa b7be a06f 9ebd
00000150: 1425 2e3d 843a 03bf ff77 fdbd 654e babe
00000160: 9321 983e 08f5 3cbe 5caa e23e 9fbf 743f
00000170: babe 11bd 110d 373e e023 c53e 74e8 fabe
00000180: 4ea3 843f f429 75be f932 13bf a6b5 eb3e
00000190: 9f97 973e b64d 2d3e 357a 813f 8880 0b3d
000001a0: 940f 7fbd 5b3c 6d3f 22e8 86bf 4fcf 20bf
000001b0: 53a9 73bf f75d fabe c248 e8be 9bea d73e
000001c0: fd8c 5e3f fa38 0f3f 5327 dc3d 59e9 2a3f
000001d0: d510 b7be 70eb 453f c6ff 703c 6cfe 82bf
000001e0: aaf6 bfbe 82df 9f3f 04b1 12bf 78a8 c3be
000001f0: 9ff8 71be 20cf 0b3f 0b03 633f 8491 6f3f
00000200: d77f dfbe 7134 353e a713 b9be eb13 5b3e
00000210: 848b 21be f77b 103e a11f 04be fb55 1a3f
00000220: 66b6 28bd 054c 17be cc45 643e 702a f2be
00000230: fa3a 7b3e f894 243f 08e0 993e 1d93 2bbe
00000240: 4b76 9a3e 589c 05be 127f c6be 73c8 96be
00000250: 2664 213e 548a 203f c9e6 40bc 39d6 de3d
00000260: b646 95be 20eb 833e a048 08bf c523 1cbe
00000270: 3e08 8abd cf1d cbbd f462 353f d1ec 14bf
00000280: ac7f 25bf 2249 733f 0674 48bd cef4 b8bc
00000290: a0f1 973e d4a0 4b3f 07b1 00bf 93d7 423e
000002a0: ed24 623e dd20 a6be 3c59 743f dd7b 203f
000002b0: fd91 053f 50be 72be 8653 123f 001b 0e3e
000002c0: df97 80bd 7a12 a53e a578 c33e 0e6b 56be
000002d0: c65d 63bd 4d9e 2ebd 1d25 3a3f 1d6b 0f3f
000002e0: e5f7 5cbe 1e8c 9cbe 97b1 09be 4df6 553f
000002f0: 98c5 1a3f d0f6 1dbe 29b6 c83d 259b e43e
00000300: 386e 32bf 7608 ff3d 9cd5 71bf eb17 453f
00000310: 0c18 213e 12cc 0dbe 94e7 32bf 7c82 333e
00000320: d4a8 18bf 5e85 54bd a758 253f f92c adbe
00000330: d2d9 543f 45d0 49bf a50b 643f 96bd 51bd
00000340: 7f40 2bbf f6c8 e2be 338c 08be a790 15bf
00000350: b4b8 d73e e219 e73e c347 653d 7981 9e3e
00000360: a5d4 5ebf 99f5 3d3f e79d cebd 3814 48bf
00000370: 47f8 f53c 8ded c1be fae8 22bd 9f24 523d
00000380: 79ba 3dbf 795b 833d ba96 6fbb cc1f 593f
00000390: 5e56 cabe 7bd5 183f 0c21 46bf db68 7fbe
000003a0: 401a 043e d6c0 c8be 4924 9cbe 42d1 7e3e
000003b0: 43ee 10bf 1f29 f93e 040e 5c3e 8a94 063f
000003c0: 40db f7be 949a 7fbe 67bd fabe 115c 28bf
000003d0: 0caf 1ebe 25ab 1b3f 6fa3 09bf c17d 0b3f
000003e0: 6d15 b83e 7c57 8fbe 297c 5a3f 3ec3 363e
000003f0: 06d1 0d3f c6c0 923e 8125 213f bc4f 943e
-0.20314008 -0.089172296 -0.767493 -1.0193639 -0.095173016 -0.7419358 0.25362122 0.5401578
-0.15119892 0.41279313 0.02786827 0.5120641 -0.4251587 0.0157794 -0.8776783 0.46311587
-0.35398197 0.1760603 0.562387 -0.48570082 0.082196906 0.13385893 0.18531224 -0.07457266
0.58456916 -0.7005822 0.4125531 0.45277444 0.2484138 0.50133026 -0.8931099 0.26915696
0.003614704 -0.51981527 0.33847064 -0.89409405 0.17798461 0.47065127 0.15707852 0.20844004
0.36131626 -0.47719842 -0.36086118 0.078686774 -0.09885984 -1.7436676 0.65909505 0.39418453
0.15788695 -0.86751324 -0.8488862 0.56550103 0.60920256 0.019337997 0.25323728 0.15348412
0.039155353 -0.23752296 -0.9453845 -0.2262673 -0.6275061 -0.8607122 -0.18316717 0.16518001
0.5714422 0.063299105 -0.076500006 0.40429974 -0.4637093 0.57173055 1.0342958 -0.793443
1.2133173 -0.38034034 -0.06613963 -0.6151316 -0.6763064 0.24185254 -1.0648706 -0.58331597
1.0440032 -0.043908864 -0.35933182 -0.077361345 0.04251583 -0.5126116 -0.12376403 -0.36387935
0.29713115 -0.18452847 0.442706 0.9560489 -0.03558228 0.17876078 0.38503933 -0.49005473
1.0362337 -0.23941785 -0.57499653 0.46037024 0.29607865 0.16924176 1.011542 0.034058124
-0.062270716 0.9267022 -1.0539591 -0.6281633 -0.95180243 -0.48899814 -0.4536801 0.42171177
0.8693388 0.55946314 0.10749688 0.6676231 -0.3575503 0.77312374 0.014709419 -1.0233893
-0.37492877 1.2490084 -0.57301354 -0.3821447 -0.23629998 0.5461292 0.8867652 0.93581414
-0.43652222 0.17695786 -0.36147806 0.21394317 -0.15775877 0.14109789 -0.1290269 0.60287446
-0.041189574 -0.14775093 0.2229225 -0.47298002 0.24534217 0.6428981 0.30053735 -0.16755338
0.30168375 -0.13047922 -0.38768822 -0.29449806 0.1576086 0.6271107 -0.0117737735 0.108807035
-0.2915551 0.25765324 -0.53235817 -0.1524802 -0.06739853 -0.09917795 0.70854115 -0.58173853
-0.64647937 0.95033467 -0.048938774 -0.02257767 0.29676533 0.7954228 -0.5027012 0.19027548
0.22084399 -0.32446948 0.9544866 0.62689 0.52175885 -0.23705411 0.57158697 0.13877487
-0.06278967 0.3224066 0.38177982 -0.20939276 -0.05550935 -0.042631436 0.7271288 0.56022817
-0.2157894 -0.3057565 -0.13446651 0.8357895 0.60457754 -0.15426183 0.09800369 0.44649616
-0.6969943 0.12452786 -0.9446657 0.7698962 0.1573183 -0.13847378 -0.6988461 0.17530245
-0.5963261 -0.051885 0.645884 -0.33823374 0.8314487 -0.7883342 0.8908027 -0.051206194
-0.6689529 -0.44293946 -0.13334732 -0.58423847 0.42133105 0.45136935 0.05597664 0.30958155
-0.8704322 0.7420288 -0.10088711 -0.7815585 0.030025614 -0.3787655 -0.039772965 0.051304456
-0.7411266 0.064139314 -0.0036558346 0.84814143 -0.39519018 0.59700745 -0.77394176 -0.24942343
0.12900639 -0.39209622 -0.30496433 0.24884513 -0.5661356 0.48664185 0.21489722 0.525704
-0.48409462 -0.2496131 -0.48972628 -0.6576548 -0.15496463 0.6080802 -0.53765005 0.5448876
0.35953847 -0.27996433 0.85345703 0.17847916 0.5539707 0.286627 0.6294785 0.28967083

fcn.2.bias f4 [10]
00000000: 0f20 92bd 473b 3a3f 771e 09bf d6e5 18be
00000010: 6934 e93d 962d 2c3f a59f 7c3e b0e1 7bbe
00000020: 187b b73e 530d 203f
-0.07135021 0.727467 -0.5356211 -0.14931425 0.113869496 0.6725706 0.24670275 -0.24597812
0.358361 0.6252033
